sr3/Model/env_model.tflite (tflite, 11724 bytes, 6 tensors)

sequential/lambda/truediv;sequential/lambda/truediv/y;sequential/dense/MatMul;sequential/dense/Relu;sequential/dense/BiasAdd f4 [64, 2]
0.0009019456 -7.915392e-06 0.0020214443 1.9842208e-05 0.023700977 -8.066668e-06 0.017576117 -7.3783417e-06
-0.024835415 1.5167905e-05 0.020322379 -1.220887e-05 0.009833497 -1.0038693e-05 0.023478998 -1.7887219e-06
0.016092973 1.1966024e-05 -0.014384852 -3.888777e-06 0.01562869 1.6035694e-05 -0.0077429903 -1.1622406e-05
-0.01805489 1.01762835e-05 0.005453382 -1.1515529e-05 0.004654159 1.4998188e-05 0.027863648 -9.005484e-06
-0.0035872064 -5.385623e-06 0.023695335 2.567809e-06 -0.014225921 -1.2853249e-05 -0.020137869 1.2494051e-05
0.0143241305 -1.5150695e-05 -0.0030248312 -4.633306e-06 -0.0009486158 1.7882372e-05 0.023894027 -5.49161e-06
-0.013895128 -1.5038209e-05 0.0072749425 1.9402907e-05 -0.001450394 -1.3091403e-05 0.013936451 -1.4587447e-05
0.017764406 -3.146531e-06 -0.010467601 1.1850111e-05 -0.016393272 -6.723302e-06 -0.01163677 1.6418473e-05
0.026712393 -6.01669e-06 0.014693851 -1.2256722e-05 -0.0067611183 8.5199545e-06 -0.0059845434 -1.4891582e-06
-0.010011489 -1.3158167e-05 0.000703387 2.1307207e-05 -0.005272497 -3.905732e-06 -0.012489985 1.6574344e-05
-0.016075745 -1.1760517e-05 0.016592443 1.2010303e-06 -0.006197047 -9.326573e-06 -0.0137079535 9.4092917e-07
-0.012215561 -8.606102e-06 -0.0067525166 1.18129865e-05 0.016875153 -5.8001574e-06 -0.016945463 -1.1270526e-05
0.026299845 4.468126e-06 -0.01723612 2.3023063e-05 -0.0037643518 1.662592e-05 0.025893837 -1.0916187e-05
-0.019647606 8.19035e-06 -0.0150231775 1.0453286e-05 -0.013941493 1.243018e-05 0.01903999 -1.7194827e-05
-0.0034738036 -4.3087716e-06 -0.021186434 7.611764e-06 -0.012114042 -7.352037e-06 -0.0035055464 8.804827e-06
0.023112508 -8.428947e-06 0.018783662 6.595023e-06 -0.022768157 1.911701e-05 -0.005988185 1.630607e-05
00000000: 8b70 6c3a 5acc 04b7 357a 043b d172 a637
00000010: 8d28 c23c 1356 07b7 cafb 8f3c 7993 f7b6
00000020: a473 cbbc a879 7e37 1e7b a63c b3d4 4cb7
00000030: ad1c 213c dc6b 28b7 0757 c03c 0414 f0b5
00000040: 69d5 833c afc1 4837 71ae 6bbc 577c 82b6
00000050: bd07 803c 6484 8637 e9b8 fdbb dbfd 42b7
00000060: d9e7 93bc ceba 2a37 49b2 b23b d232 41b7
00000070: ea81 983b baa0 7b37 4e42 e43c 4216 17b7
00000080: 5617 6bbb 26b6 b4b6 b81c c23c 9f52 2c36
00000090: d613 69bc 49a4 57b7 2cf8 a4bc 8a9d 5137
000000a0: c2af 6a3c bd2f 7eb7 3f3c 46bb cc77 9bb6
000000b0: 87ac 78ba 1a02 9637 68bd c33c 9244 b8b6
000000c0: 64a8 63bc 9e4c 7cb7 a462 ee3b 6dc3 a237
000000d0: 261b beba 26a3 5bb7 b655 643c 9cbc 74b7
000000e0: a986 913c fe28 53b6 4d80 2bbc d7cf 4637
000000f0: 2f4b 86bc b998 e1b6 27a8 3ebc 67ba 8937
00000100: f3d3 da3c f9e2 c9b6 7abe 703c 38a2 4db7
00000110: 5f8c ddbb edf0 0e37 fd19 c4bb 16df c7b5
00000120: 3a07 24bc e6c1 5cb7 8163 383a e1bc b237
00000130: e9c4 acbb fb0d 83b6 cba2 4cbc 2209 8b37
00000140: 48b1 83bc 094f 45b7 e0ec 873c 1633 a135
00000150: 9910 cbbb 5379 1cb7 5397 60bc 2994 7c35
00000160: c723 48bc ed62 10b7 3744 ddbb 6430 4637
00000170: c33d 8a3c f99e c2b6 36d1 8abc 8a16 3db7
00000180: c672 d73c e9ec 9536 c332 8dbc a721 c137
00000190: 58b3 76bb e477 8b37 501f d43c ab24 37b7
000001a0: 04f4 a0bc 4969 0937 c623 76bc 8660 2f37
000001b0: dc6a 64bc 378b 5037 c1f9 9b3c 9c3d 90b7
000001c0: c1a8 63bb 1194 90b6 2c8f adbc 8e68 ff36
000001d0: fa79 46bc 84b1 f6b6 4fbd 65bb 72b8 1337
000001e0: 7156 bd3c 0d6a 0db7 32e0 993c d14a dd36
000001f0: 4984 babc 775d a037 8938 c4bb 05c9 8837

sequential/dense/BiasAdd/ReadVariableOp f4 [64]
0.23423612 -0.10920906 -0.051359173 -0.017960267 -0.06656041 -0.020341875 -0.02960071 -0.08846142
0.06541729 0.2760021 0.110190175 0.24706817 0.03444896 -0.09346619 0.0026293339 -0.05157313
0.22502469 -0.047775343 0.1501205 0.025302913 0.08869482 0.21060398 -0.04798125 -0.07057429
0.08277 -0.022527 0.17491284 0.0040310635 -0.046731032 -0.092655614 0.25194475 -0.030536437
-0.05239319 0.05904285 -0.079899155 0.20963337 0.21503259 -0.052971207 0.18895997 -0.13893394
0.1722988 -0.008621661 0.133693 0.26391804 0.2289354 -0.11262051 -0.041892596 0.18995544
-0.0059013423 -0.16304529 -0.15387891 -0.032720774 0.15630843 -0.085122965 -0.11089559 0.06862168
0.1665809 0.025561973 0.2146234 -0.08742821 -0.028990725 -0.007431966 -0.10205049 -0.08774176
00000000: 98db 6f3e 00a9 dfbd ff5d 52bd 6921 93bc
00000010: d350 88bd 01a4 a6bc 307d f2bc 432b b5bd
00000020: 80f9 853d 2650 8d3e 63ab e13d 70ff 7c3e
00000030: 5a1a 0d3d 346b bfbd e750 2c3b 593e 53bd
00000040: df6c 663e 14b0 43bd 30b9 193e 0e48 cf3c
00000050: a1a5 b53d 92a8 573e fd87 44bd 4189 90bd
00000060: 5183 a93d 8b8a b8bc 5a1c 333e 0317 843b
00000070: 0a69 3fbd 3ac2 bdbd e7fe 803e 8d27 fabc
00000080: 3e9a 56bd ead6 713d 2ba2 a3bd 21aa 563e
00000090: 8131 5c3e 56f8 58bd b97e 413e b344 0ebe
000000a0: 196f 303e de41 0dbc d1e6 083e 4420 873e
000000b0: 0b6e 6a3e 95a5 e6bd 9297 2bbd ae83 423e
000000c0: 0c60 c1bb 58f5 26be 6f92 1dbe 3806 06bd
000000d0: 510f 203e f354 aebd 3a1d e3bd 8689 8c3d
000000e0: 2f94 2a3e 5867 d13c 3dc6 5b3e 900d b3bd
000000f0: f57d edbc d987 f3bb d9ff d0bd f4b1 b3bd

sequential/dense_1/BiasAdd/ReadVariableOp f4 [32]
0.16120905 0.14988656 0.0 -0.03385343 0.13653094 0.20630018 0.20018162 0.15540296
0.09748593 0.0 0.09544279 0.0032091814 0.10873057 0.11386773 -0.036748312 0.1582996
0.002511009 0.027306385 -0.012399698 0.15595756 0.0 0.0 0.023719026 0.017340804
-0.033189964 0.1677297 0.16677156 0.14748226 0.010413854 0.14561668 0.15715519 0.007994705
00000000: fc13 253e dd7b 193e 0000 0000 e5a9 0abd
00000010: c4ce 0b3e 5b40 533e 69fc 4c3e f421 1f3e
00000020: b4a6 c73d 0000 0000 8277 c33d 2151 523b
00000030: 22ae de3d 7c33 e93d 6685 16bd 4a19 223e
00000040: be8f 243b a4b1 df3c 1a28 4bbc 57b3 1f3e
00000050: 0000 0000 0000 0000 674e c23c 4d0e 8e3c
00000060: 33f2 07bd 56c1 2b3e 2ac6 2a3e 9705 173e
00000070: df9e 2a3c 8a1c 153e 4aed 203e 39fc 023c

sequential/lambda/sub/y f4 [2]
18.954803 85000.48
00000000: 70a3 9741 3d04 a647

sequential/dense_1/MatMul f4 [32, 64]
0.2438207 -0.0750332 -0.09510447 0.031083839 -0.30994475 -0.11910168 -0.15287761 -0.39467865
0.17141798 0.25002915 0.17309943 0.27857205 0.1857098 -0.23168817 -0.23125178 -0.3189804
0.32616964 -0.12143249 0.32611552 -0.21295601 0.18539113 0.16545771 -0.041838896 -0.35629523
-0.0093562985 0.040800054 0.16495205 0.052816298 0.014910932 -0.29484916 0.17843817 0.15521385
-0.03919848 -0.1726891 -0.28806058 0.1002182 0.1570908 -0.08540123 0.011744742 0.012806058
0.32132438 0.2185258 -0.13868791 0.30648503 0.297615 -0.3476365 -0.24749683 0.18961191
-0.107556425 -0.13816245 -0.2044307 -0.072540805 0.06721482 -0.24702212 -0.20593317 -0.2102177
0.16019978 0.18019986 -0.033009015 0.12192272 -0.031050757 0.22498913 -0.2893835 0.055199336
0.073958576 -0.1430935 0.100557566 -0.26502702 0.026900105 0.1195691 -0.31173062 -0.3458626
0.14984737 0.023742663 -0.072411954 0.06639544 -0.13361299 -0.10793792 -0.20553285 0.10779441
0.39714617 0.016260386 0.1670095 0.19282828 -0.047731247 0.15965351 0.073649965 -0.27319005
0.0620189 -0.11175314 0.14805526 0.025678083 -0.35286528 -0.15846062 0.23314606 -0.263155
0.010206368 0.14988016 -0.33199027 0.34407488 0.1976605 -0.1460132 0.030750474 -0.31803098
-0.09701761 -0.12252272 0.11561416 0.35852116 0.3195336 -0.15929192 -0.23580267 0.28974098
0.11045632 -0.118495524 -0.23838973 -0.19031338 0.1515615 0.08974329 -0.12501216 0.024547463
0.13013247 -0.0062071607 0.17996812 -0.2836974 -0.12756506 0.09333601 0.12460335 -0.23786438
-0.09208453 -0.13910663 0.24662578 0.042009413 -0.22242302 0.04385394 0.098002434 -0.24889857
0.07187289 -0.22652912 0.16749734 0.0093794465 0.04703021 -0.22175395 0.034145653 -0.21421725
0.20084697 0.1710375 -0.24857849 0.2014789 -0.20691586 0.22425503 -0.059868276 0.093993545
0.03523308 -0.17346954 0.118349075 0.12446016 0.019286811 -0.1378389 -0.13189507 0.23798168
0.04931283 -0.18949378 0.1623624 -0.24594486 0.08834177 -0.24027616 0.15779066 -0.15304714
0.20283556 -0.16774696 -0.1582644 -0.24209273 -0.20837212 -0.16012943 0.09949356 -0.12987012
-0.24273628 0.08900648 -0.031341434 -0.05640465 -0.17974156 -0.24815756 0.17108208 0.021335065
-0.16247886 0.060437918 -0.23707503 0.045762956 -0.0063280463 -0.037350357 0.18647474 -0.188088
-0.2811277 -0.23998553 -0.25289384 0.16661009 0.07194217 0.044536088 -0.1336562 0.052481912
-0.08957296 -0.21043809 -0.13309538 -0.17368753 -0.1312066 0.10917053 -0.025275145 0.04744751
-0.24833824 -0.16863528 -0.082574464 0.18030553 0.17206603 -0.20874058 -0.18846196 0.13534258
0.22243634 0.07239495 -0.20935382 -0.011264079 0.10712497 -0.092640296 -0.21689813 0.1819962
-0.036795788 0.1428243 -0.0059358287 -0.21029554 0.02791757 0.21770985 0.14211561 0.03732133
0.1710354 0.17784803 -0.24167734 -0.20791893 0.2456493 -0.22493747 0.15539727 0.026974639
-0.059520595 0.003946737 -0.18793297 0.19669466 0.15017791 -0.026779866 0.107432336 0.05661527
0.005655568 -0.22171529 0.016191507 0.20411065 -0.1361426 -0.079312295 0.10362263 0.024677504
00000000: 22ac 793e 02ab 99bd 22c6 c2bd 89a3 fe3c
00000010: 14b1 9ebe 95eb f3bd f38b 1cbe 5213 cabe
00000020: 3288 2f3e d203 803e fa40 313e ffa0 8e3e
00000030: b62a 3e3e aa3f 6dbe 44cd 6cbe 6651 a3be
00000040: b5ff a63e 99b1 f8bd 9df8 a63e 2411 5abe
00000050: 2cd7 3d3e bf6d 293e 435f 2bbd 546c b6be
00000060: 294b 19bc f51d 273d 31e9 283e e755 583d
00000070: fb4c 743c 78f6 96be 7fb8 363e 61f0 1e3e
00000080: 968e 20bd 69d5 30be ad7c 93be 333f cd3d
00000090: 69dc 203e d7e6 aebd 056d 403c 80d0 513c
000000a0: a184 a43e 3ac5 5f3e 3404 0ebe 9beb 9c3e
000000b0: fe60 983e 69fd b1be cf6f 7dbe a029 423e
000000c0: 8b46 dcbd 757a 0dbe 4856 51be 4690 94bd
000000d0: eca7 893d 5ef3 7cbe 25e0 52be 4f43 57be
000000e0: 690b 243e 5086 383e 7634 07bd 9eb2 f93d
000000f0: 285e febc 8d63 663e 132a 94be b318 623d
00000100: 9877 973d 1a87 12be 20f1 cd3d 9fb1 87be
00000110: 9c5d dc3c a5e0 f43d 289b 9fbe e714 b1be
00000120: 9771 193e f97f c23c b84c 94bd 55fa 873d
00000130: d8d1 08be 8e0e ddbd 3477 52be 51c3 dc3d
00000140: be56 cb3e 8034 853c 8a04 2b3e c774 453e
00000150: d781 43bd 367c 233e cbd5 963d 91df 8bbe
00000160: 8807 7e3d d5de e4bd cc9b 173e d85a d23c
00000170: c2aa b4be 8043 22be d7bd 6e3e 41bc 86be
00000180: 9c38 273c 2f7a 193e a1fa a9be 952a b03e
00000190: 8467 4a3e 7c84 15be 6be8 fb3c f5d4 a2be
000001a0: 2bb1 c6bd 31ed fabd 1ec7 ec3d 1690 b73e
000001b0: e899 a33e 6c1d 23be 4176 71be ee58 943e
000001c0: ec36 e23d c8ad f2bd 701c 74be 83e1 42be
000001d0: f032 1b3e 54cb b73d 3003 00be c317 c93c
000001e0: 7241 053e 7065 cbbb 9049 383e c940 91be
000001f0: 6aa0 02be f326 bf3d 0b30 ff3d b892 73be
00000200: d096 bcbd f871 0ebe 788b 7c3e 1012 2c3d
00000210: dcc2 63be 30a0 333d 80b5 c83d 44df 7ebe
00000220: 1832 933d 40f7 67be 6c84 2b3e 40ac 193c
00000230: c0a2 403d 7813 63be 50dc 0b3d c45b 5bbe
00000240: d4aa 4d3e 7424 2f3e 5c8b 7ebe 7c50 4e3e
00000250: c0e1 53be 1ca3 653e 7038 75bd b07f c03d
00000260: 9050 103d 00a2 31be 0061 f23d f8e4 fe3d
00000270: 60ff 9d3c a425 0dbe 800f 07be 78b1 733e
00000280: 40fc 493d a80a 42be 5442 263e f8d8 7bbe
00000290: 88ec b43d f40a 76be e093 213e 64b8 1cbe
000002a0: 20b4 4f3e dcc5 2bbe 1010 22be 28e7 77be
000002b0: 805f 55be f8f8 23be 48c3 cb3d acfc 04be
000002c0: dc8f 78be 0849 b63d e05f 00bd 9008 67bd
000002d0: 2c0e 38be 041d 7ebe 2430 2f3e e0c6 ae3c
000002e0: dc60 26be c08d 773d ccc3 72be f071 3b3d
000002f0: 805b cfbb b0fc 18bd 3cf3 3e3e 249a 40be
00000300: f8ef 8fbe c4be 75be 4d7b 81be d69b 2a3e
00000310: 6b56 933d 796b 363d 2cdd 08be 46f7 563d
00000320: 0772 b7bd 157d 57be 284a 08be 25db 31be
00000330: 065b 06be cd94 df3d d20d cfbc 5258 423d
00000340: 614c 7ebe baae 2cbe cd1c a9bd 03a2 383e
00000350: 1432 303e 17c0 55be 2cfc 40be 3f97 0a3e
00000360: 5ac6 633e ce43 943d d960 56be f98c 38bc
00000370: 5664 db3d 32ba bdbd 8b1a 5ebe 365d 3a3e
00000380: 2eb7 16bd 8940 123e 5781 c2bb b757 57be
00000390: 63b3 e43c 55ef 5e3e c186 113e 40de 183d
000003a0: e723 2f3e cb1d 363e 447a 77be b3e8 54be
000003b0: 7d8b 7b3e 0256 66be 7620 1f3e ebf9 dc3c
000003c0: decb 73bd a153 813b 8071 40be 536a 493e
000003d0: 3dc8 193e 7361 dbbc 7c05 dc3d 6ae5 673d
000003e0: 5852 b93b 5509 63be 0da4 843c 6202 513e
000003f0: f768 0bbe 7c6e a2bd 1a38 d43d 7a28 ca3c

sequential/dense_2/MatMul f4 [1, 32]
0.5157341 0.5002542 0.17846507 0.03572577 0.6118951 0.30295464 0.3321746 0.68082005
0.4708516 0.4173172 0.2773254 -0.37796804 0.37965444 0.30556968 -0.65790147 0.38050142
-0.44101495 -0.59730095 -0.27665308 0.30803025 0.024193823 -0.16551217 -0.36924046 -0.4371616
-0.26930574 0.30275652 0.4048048 0.2398958 -0.35844204 0.5352917 0.54965484 -0.4497398
00000000: 2607 043f a910 003f 8cbf 363e 2f55 123d
00000010: 28a5 1c3f df1c 9b3e ca12 aa3e 394a 2e3f
00000020: 7613 f13e 9aaa d53e 98fd 8d3e 0785 c1be
00000030: 1162 c23e a173 9c3e 3b6c 28bf 15d1 c23e
00000040: b6cc e1be b7e8 18bf 79a5 8dbe 24b6 9d3e
00000050: 2032 c63c 067c 29be 160d bdbe a5d3 dfbe
00000060: 71e2 89be e702 9b3e 9342 cf3e 3fa7 753e
00000070: b785 b7be e008 093f 2eb6 0c3f 4c44 e6be
